Layer name, IFMAP Height, IFMAP Width, Filter Height, Filter Width, Channels, Num Filter, Strides(HW), Paddings(TRBL), IFMAP Mapping Mode, Filter Mapping Mode, Type, ifm_bw
Conv1x1, 32, 32, 1, 1, 32, 32, [1 1], [0 0 0 0], broadcast, unicast, conv, 320,
Conv1x1, 32, 32, 1, 1, 32, 32, [1 1], [0 0 0 0], unicast, broadcast, conv, 320,
Conv3x3, 32, 32, 3, 3, 32, 16, [2 2], [1 1 0 0], broadcast, unicast, conv, 320,
Conv3x3, 32, 32, 3, 3, 32, 16, [2 2], [1 1 0 0], unicast, broadcast, conv, 320,
firstlayer, 112, 112, 3, 3, 3, 16, [2 2], [1 1 0 0], unicast, broadcast, conv, 320,
firstlayer, 112, 112, 3, 3, 3, 16, [2 2], [1 1 0 0], broadcast, unicast, conv, 320,
