Layer name, IFMAP Height, IFMAP Width, Filter Height, Filter Width, Channels, Num Filter, Strides, Paddings, IFMAP Mapping Mode, Filter Mapping Mode, Depthwise,
MobileNetV2_2, 56, 56, 1, 1, 96, 24, 1, [0 0 0 0], unicast, broadcast, others,
MobileNetV2_0, 112, 112, 1, 1, 32, 32, 1, [0 0 0 0], unicast, broadcast, others,
MobileNetV2_1, 112, 112, 1, 1, 16, 96, 1, [0 0 0 0], unicast, broadcast, others,
MobileNetV2_3, 56, 56, 1, 1, 24, 144, 1, [0 0 0 0], unicast, broadcast, others,
MobileNetV2_4, 56, 56, 1, 1, 144, 24, 1, [0 0 0 0], unicast, broadcast, others,
MobileNetV2_5, 28, 28, 1, 1, 144, 32, 1, [0 0 0 0], unicast, broadcast, others,
MobileNetV2_6, 28, 28, 1, 1, 32, 192, 1, [0 0 0 0], unicast, broadcast, others,
MobileNetV2_7, 28, 28, 1, 1, 192, 32, 1, [0 0 0 0], unicast, broadcast, others,
MobileNetV2_8, 14, 14, 1, 1, 192, 64, 1, [0 0 0 0], unicast, broadcast, others,
MobileNetV2_9, 14, 14, 1, 1, 384, 64, 1, [0 0 0 0], unicast, broadcast, others,
MobileNetV2_10, 14, 14, 1, 1, 576, 96, 1, [0 0 0 0], unicast, broadcast, others,
MobileNetV2_11, 7, 7, 1, 1, 576, 160, 1, [0 0 0 0], unicast, broadcast, others,
MobileNetV2_12, 7, 7, 1, 1, 160, 960, 1, [0 0 0 0], unicast, broadcast, others,

MobileNetV2_0, 112, 112, 3, 3, 32, 32, 1, [1 1 1 1], unicast, broadcast, true,
MobileNetV2_1, 112, 112, 3, 3, 96, 96, 2, [1 1 0 0], unicast, broadcast, true,
MobileNetV2_2, 56, 56, 3, 3, 144, 144, 1, [1 1 1 1], unicast, broadcast, true,
MobileNetV2_3, 56, 56, 3, 3, 144, 144, 2, [1 1 0 0], unicast, broadcast, true,
MobileNetV2_4, 28, 28, 3, 3, 192, 192, 1, [1 1 1 1], unicast, broadcast, true,
MobileNetV2_5, 28, 28, 3, 3, 192, 192, 2, [1 1 0 0], unicast, broadcast, true,
MobileNetV2_6, 14, 14, 3, 3, 384, 384, 1, [1 1 1 1], unicast, broadcast, true,
MobileNetV2_7, 14, 14, 3, 3, 576, 576, 1, [1 1 1 1], unicast, broadcast, true,
MobileNetV2_8, 14, 14, 3, 3, 576, 576, 2, [1 1 0 0], unicast, broadcast, true,
MobileNetV2_9, 7, 7, 3, 3, 960, 960, 1, [1 1 1 1], unicast, broadcast, true,

FirstLayer_SqueezeNet, 224, 224, 7, 7, 3, 96, 2, [3 3 2 2], broadcast, unicast, false,
FirstLayer_ResNet18, 224, 224, 7, 7, 3, 16, 2, [3 3 2 2], broadcast, unicast, false,
FirstLayer_MobileNetV2, 224, 224, 3, 3, 3, 32, 2, [1 1 0 0], broadcast, unicast, false,
FirstLayer_MobileNetV3, 224, 224, 3, 3, 3, 16, 2, [1 1 0 0], broadcast, unicast, false,
FirstLayer_UNet, 286, 286, 3, 3, 3, 64, 1, [1 1 1 1], broadcast, unicast, false,
FirstLayer_FaceDetection, 320, 240, 3, 3, 3, 16, 2, [1 1 0 0], broadcast, unicast, false,
Dw5x5_MobileNetV3, 56, 56, 5, 5, 72, 72, 2, [2 2 1 1], unicast, unicast, true,
Conv1x1, 28, 32, 1, 1, 37, 43, 1, [0 0 0 0], unicast, broadcast, others,
Conv3x3, 32, 36, 3, 3, 37, 43, 2, [1 1 0 0], unicast, broadcast, others,
DwConv3x3, 56, 60, 3, 3, 77, 77, 1, [1 1 1 1], unicast, broadcast, true,
DwConv3x3, 56, 60, 3, 3, 77, 77, 2, [1 1 0 0], unicast, broadcast, true,
DwConv5x5, 56, 60, 5, 5, 77, 77, 2,  [2 2 1 1], unicast, unicast, true,
