Layer name, IFMAP Height, IFMAP Width, Filter Height, Filter Width, Channels, Num Filter, Strides, Paddings, IFMAP Mapping Mode, Filter Mapping Mode, Depthwise,
Conv3x3, 32, 32, 3, 3, 32, 16, 2, [1 1 0 0], unicast, broadcast, others,
Conv3x3, 32, 32, 3, 3, 32, 16, 2, [1 1 0 0], broadcast, unicast, others,
Conv1x1, 32, 32, 1, 1, 32, 32, 1, [0 0 0 0], unicast, broadcast, others,
Conv1x1, 32, 32, 1, 1, 32, 32, 1, [0 0 0 0], broadcast, unicast, others,
firstlayer, 112, 112, 3, 3, 3, 16, 2, [1 1 0 0], broadcast, unicast, false,
firstlayer, 112, 112, 3, 3, 3, 16, 2, [1 1 0 0], unicast, broadcast, others,
MobileNetV2_13, 1, 1, 1, 1, 1280, 1000, 1, [0 0 0 0], unicast, broadcast, others,
firstlayer, 112, 112, 3, 3, 3, 16, 2, [1 1 0 0], broadcast, unicast, others,
