Layer name, IFMAP Height, IFMAP Width, Filter Height, Filter Width, Channels, Num Filter, Strides, Paddings, IFMAP Mapping Mode, Filter Mapping Mode, Depthwise
MobileNetV2_2, 56, 56, 1, 1, 96, 34, 1, [0 0 0 0], unicast, broadcast, others,
conv3x3, 32, 32, 3, 3, 37, 43, 2, [1 1 0 0], unicast, broadcast, others,
pointwise, 56, 56, 1, 1, 24, 144, 1, [0 0 0 0], unicast, broadcast, others,
conv3x3, 32, 32, 3, 3, 48, 32, 2, [1 1 0 0], unicast, broadcast, others,
first_layer_3x3,  112, 112,    3, 3,      3,      32, 2, [1 1 0 0], broadcast, unicast, false,
dw_5x5,  56, 56, 5, 5, 32, 32, 2,  [1 1 0 0], unicast, unicast, true,
dw_3x3,  112, 112, 3, 3, 32, 32, 2,  [1 1 0 0], unicast, broadcast, true,
